Flutter-Age-calculator/.dart_tool/chrome-device/Default/optimization_guide_prediction_model_downloads/80bc612a-03a0-4596-abcb-3b8b7de9213a/model.tflite (tflite, 410364 bytes, 166 tensors)

context_transformer_0/bottleneck_input/norm/add f4 [32]
000000 80 d6 26 3d 36 95 73 bd 60 95 81 bc 24 a6 21 bc
       0.040731907 -0.05946847 -0.015818298 -0.009866271
000010 f0 c2 51 3d c4 45 ce bc 96 ed 3b 3d 5f 58 84 bd
       0.051211298 -0.025179751 0.045880876 -0.06462168
000020 21 d0 c6 3c 8e b0 2d 3d 0e 54 98 3c 3e 27 5c 3d
       0.024269165 0.042404704 0.018594768 0.05374836
000030 2d bd 21 3e 41 37 3c 3d f0 8d 19 3d bb 24 31 bd
       0.15794821 0.04595113 0.037488878 -0.04324792
000040 ae b0 f5 3c d6 be c8 3d fb f9 56 bd 84 eb 30 bd
       0.029991474 0.09802024 -0.052484494 -0.043193355
000050 75 77 ba bd 78 36 34 bc 55 82 82 3c 49 9d 85 3c
       -0.09104816 -0.0109993145 0.015931288 0.016310351
000060 e1 1a 92 bc 95 2d 87 bd 30 d4 eb 3c ca df a9 bd
       -0.017835082 -0.06600491 0.028787702 -0.082946375
000070 30 c0 6f 3d 48 16 dc bb 9c 9f dd 3d 6c 63 ee bb
       0.058532894 -0.0067165233 0.10821459 -0.0072750356

context_transformer_1/bottleneck_input/norm/add f4 [32]
000000 9a 59 84 3d 15 16 70 3d 99 a3 c4 3e 31 69 8a be
       0.06462403 0.05861481 0.38406065 -0.2703338
000010 3e 7a 90 bc 46 39 e7 3c 0f 9d 54 be b8 71 a2 3d
       -0.017636415 0.028225552 -0.20763038 0.079318464
000020 46 1f 8e bd 2a 89 c7 bc e1 33 85 bc fc 33 18 3e
       -0.06939559 -0.024357397 -0.01626009 0.1486358
000030 b1 c6 1a be 32 7a bf 3c b4 dd 15 3e dc 04 0d be
       -0.15114857 0.023373697 0.14635354 -0.13771385
000040 fd bb 29 3d 4e 4b e7 3c c5 bc 70 3c 32 c5 f7 bb
       0.041439045 0.02823415 0.014693444 -0.0075613493
000050 60 66 03 be 82 d5 81 3d c2 3f 69 bd a0 fa bb bd
       -0.12832022 0.063395515 -0.05694557 -0.09178662
000060 70 da 16 39 bb 9b e8 bd 74 b0 2d bd 97 50 fc bc
       0.00014386489 -0.11357828 -0.042404607 -0.030800147
000070 48 bf 1c bd e0 dd 82 bd e0 ac a0 bc 67 aa ef bd
       -0.038268358 -0.063899755 -0.019613683 -0.117024235

mention_transformer_0/bottleneck_input/norm/add f4 [32]
000000 63 01 9c bd 64 8b ac 3d 05 49 a4 3d cb 5d 0c 3e
       -0.07617452 0.08425024 0.0802174 0.13707654
000010 2e 47 3f bd 24 fd 42 3e 96 6a 2b be 40 ef bb bd
       -0.04669874 0.19041878 -0.16739878 -0.09176493
000020 a6 76 88 bb 45 b6 46 bd 34 d6 bc 3d e3 c7 8c 3e
       -0.0041645346 -0.04851367 0.092205435 0.2749625
000030 a0 4e 1c be 5a a4 6e be 02 22 f8 3d 07 de 3a 3e
       -0.15264368 -0.23304883 0.121158615 0.18248759
000040 02 96 28 bd 3e 58 db 3d e7 e6 85 3d fc 2f 93 3c
       -0.041158684 0.1071019 0.06538182 0.017967217
000050 b0 56 38 be f6 9e 34 be c8 ed 2d bd b6 c6 93 bd
       -0.18001819 -0.17638764 -0.042463094 -0.072156355
000060 2d d4 9d 3d 7e 2a 89 3d de 58 27 be d6 3f 64 3e
       0.07706485 0.06697558 -0.16342494 0.22289976
000070 aa fd 64 3d 28 b2 fe bd 66 d7 39 3d b2 15 1e 3e
       0.055905975 -0.12436324 0.045371436 0.15437964

mention_transformer_1/bottleneck_input/norm/add f4 [32]
000000 14 86 d7 3c 7a 4b 34 3e 3b 09 a6 3d b1 50 8f be
       0.02630905 0.17606917 0.08107229 -0.2799125
000010 12 22 a1 be c7 3a 9c bd 85 b2 e5 3c 1a 74 62 3c
       -0.31471306 -0.076283984 0.028039226 0.013821626
000020 4f 8f 68 3d 20 d3 bd 3d 9f 30 70 3e 61 df ec 3d
       0.056777295 0.092687845 0.23456047 0.11566044
000030 5c 14 5c 3e d1 13 3c 3e 4c 4d e8 bc db 62 90 3d
       0.21492141 0.18366934 -0.02835717 0.07050105
000040 b4 ae 81 3d 82 e3 4a be 36 12 8c be 00 9d e7 be
       0.0633215 -0.1981335 -0.27357644 -0.4523697
000050 1a ad 3a 3e 26 e7 80 3e 4b 09 82 be 48 4c ae 3e
       0.18230096 0.25176352 -0.25397715 0.34042573
000060 40 4e 1d 3e bd 2c b0 bd de 4a 08 be ce ab 56 be
       0.15361881 -0.08602283 -0.1330981 -0.20963976
000070 30 89 c5 be 85 f1 10 be 32 59 af bd 6f ca 72 be
       -0.38581228 -0.14154632 -0.085619345 -0.23710035

context_transformer_0/attention/value/add;context_transformer_0/attention/value/einsum/Einsum;context_transformer_0/attention/value/add/ReadVariableOp/resource f4 [32]
000000 5b 3d 45 3d 49 ec bf 3c aa fd 2e bd a6 5f b5 3c
       0.048154216 0.0234281 -0.04272238 0.022140335
000010 b9 e0 0a 3d 91 b5 4c 3c 17 6a a7 3c 5f ce 9c 3c
       0.03390572 0.012494461 0.02043633 0.019141374
000020 35 7b aa bd 59 fe cd 3d 07 ad f9 3c 0e d9 3e bd
       -0.08324281 0.100582786 0.030478014 -0.04659372
000030 2c ad 11 3d f5 6e 48 3a fc de e9 bc 7d 57 b2 bd
       0.03556554 0.00076459284 -0.02854871 -0.08708093
000040 7b 20 8e 3c fb c3 0f bd d4 da 87 bc 42 9b 50 3d
       0.017349472 -0.03509901 -0.016583838 0.050929315
000050 75 53 80 3d a0 eb a6 3d 70 a5 84 bc 2c 30 84 bd
       0.06265918 0.08150411 -0.016192168 -0.064545006
000060 0a fe 01 3e df 33 5a 3d 9c 4c 2e 3d 8c 84 d3 3b
       0.12694564 0.053272124 0.04255353 0.00645501
000070 9c 69 69 3d e1 1d 6a bd 09 05 e6 bd 71 08 0e 3d
       0.056985483 -0.0571574 -0.11231429 0.03467602

context_transformer_0/bottleneck_input/norm/mul f4 [32, 32]
000000 39 d8 49 3d 7f 20 1a bd 08 0b 3c 3d f7 a5 28 3e
       0.04927847 -0.037628647 0.045908958 0.1646956
000010 c0 32 50 bc b9 eb 6b 3d 96 e8 21 3e 58 fb 8e 3d
       -0.012707412 0.05759785 0.1581138 0.06981534
000020 28 75 c1 bd bd 5a 72 bd 35 7c d7 3d b1 83 8c be
       -0.09446174 -0.059168566 0.105217375 -0.27444223
000030 61 b8 b2 3d 28 40 e7 3b 4a 79 69 3e 51 4b 56 3e
       0.08726574 0.0070572086 0.22800174 0.20927168
000040 ea ef 2e 3d ba 52 8d 3d ba c6 22 be e5 52 ea bc
       0.04270927 0.069005445 -0.1589612 -0.02860398
000050 b5 94 58 3c 87 16 c8 bc 4e 36 a8 3c 5c 89 52 bd
       0.013219048 -0.024424804 0.020533707 -0.051400527
000060 ca c2 8b bc 89 10 29 3d 96 ef 01 3e af 2c 00 3e
       -0.017060656 0.041275535 0.12689051 0.12517045
000070 b5 0e 7a bd 4f 74 b5 3d ab aa b1 3d 16 41 da 3b
       -0.061049182 0.08860075 0.086751305 0.006660591
000080 fa aa d7 3e f2 51 93 3e 6f 38 a7 3d aa 07 d4 3e
       0.42122632 0.28773457 0.08165061 0.41412097
000090 9c 12 1c bf 32 8e b9 be f0 53 99 3e 25 30 6e 3e
       -0.60965896 -0.362413 0.29946852 0.23260553
0000a0 f9 cf 0a be 67 0d c2 be e1 eb a1 3d 17 2c 58 bc
       -0.13555898 -0.3790085 0.079063185 -0.013194106
0000b0 f8 a4 8e 3d 38 32 15 3e 4f 2a 18 3f 44 e5 94 3e
       0.06965059 0.14569938 0.5943956 0.29081166
0000c0 3f 1a e1 bc 8e 32 d9 bd 0b d4 f0 3b 2f 2f e0 3e
       -0.027478335 -0.10605346 0.0073494962 0.43785998
0000d0 52 91 01 bf cd 40 dd 3e 3f 12 12 bd f6 49 3d 3e
       -0.50612366 0.43213502 -0.035661932 0.18485245
0000e0 f3 d3 06 bf da 0e 41 be 57 b5 50 3f 04 dd a4 bd
       -0.5266716 -0.18853322 0.815267 -0.08049968
0000f0 60 51 3d 3e a5 e2 66 be 32 02 6e 3e f9 87 ac be
       0.18488073 -0.22547396 0.23243025 -0.3369749
000100 43 85 51 be e7 53 27 3e c5 02 d6 bd 8b b4 bb 3d
       -0.20460992 0.163406 -0.10449747 0.09165295
000110 80 19 82 3e 6d bf 43 be e3 fd c1 3d 49 06 e2 3d
       0.2541008 -0.19115992 0.09472253 0.11036355
000120 bc 26 b1 3c 2b c4 c2 3e 16 0a 73 be 39 f9 8f 3d
       0.021624915 0.3804029 -0.23734316 0.07029957
000130 11 43 d3 bd 7d 61 e4 3d e4 f6 e4 bd 93 6e 90 bc
       -0.10315526 0.11151407 -0.11179903 -0.01763085
000140 87 d1 2d 3d 3e 76 a3 be 42 8a d7 3d e1 fa e6 be
       0.04243615 -0.3192615 0.105244175 -0.4511328
000150 6e 8b a3 3d e5 d6 a1 be 32 53 28 3e fb 22 01 be
       0.079855785 -0.31609264 0.16437986 -0.12611
000160 a9 7a 58 bc e4 55 b4 bd 73 38 21 be 57 b4 65 3e
       -0.013212838 -0.08805445 -0.1574419 0.22432075
000170 58 5b 9d be 44 21 03 3e 5c b9 01 be ec 00 2c bc
       -0.30733752 0.12805659 -0.12668365 -0.010498267
000180 a2 07 3c 3e a5 d0 59 3f e1 67 5f be 4d b1 93 3e
       0.18362287 0.8508399 -0.2181697 0.28846207
000190 51 31 8a bd ff 4e d0 be d5 6d 54 bf 0f 37 09 3b
       -0.067476876 -0.4068527 -0.8298009 0.0020937358
0001a0 d7 43 4a be ff 0a 9b 3d da 55 03 3f c2 ae 14 bf
       -0.19752441 0.07570457 0.51302874 -0.5807916
0001b0 2f 61 0b 3e 99 20 fa bd 32 4c 0a bf 2d f6 dc 3d
       0.13611291 -0.12213249 -0.54022515 0.10789142
0001c0 b7 c5 94 be e7 f9 ea bc 84 2f a5 be f3 cc 3a bd
       -0.29057094 -0.028683616 -0.32262814 -0.04560561
0001d0 3e 2f b1 be 71 c2 28 bf 53 49 4d bd 94 98 cf be
       -0.34606355 -0.65921694 -0.050118756 -0.40546095
0001e0 42 60 91 be 34 d7 83 be fb 32 b1 3e b7 f3 eb 3d
       -0.2839375 -0.25750124 0.34609208 0.11521094
0001f0 04 a4 5d be a6 a0 2c be c7 cf e8 bd 01 c0 5b 3e
       -0.21644598 -0.16858158 -0.113677554 0.21459962
000200 3d 0e 3a 3e 33 73 36 be a5 e9 39 3e 2f fb b8 bd
       0.18169494 -0.17817383 0.18155535 -0.090322845
000210 ce 13 96 3e 5f 22 68 bd 29 e6 40 3d 95 1b 56 3e
       0.29311985 -0.056673404 0.047094498 0.20908959
000220 ae 06 ad be 19 e2 f6 3d ee 56 38 3e ac 1d 90 3e
       -0.3379416 0.120548435 0.18001911 0.28147638
000230 38 0b 4e be 78 fc 0e be 46 6f 01 bd 79 7f d2 bc
       -0.20121467 -0.13963497 -0.03160026 -0.02569555
000240 eb d5 4c be b6 21 48 be 5c 42 f2 bd ac 37 f6 be
       -0.20003478 -0.1954411 -0.11829063 -0.4808935
000250 9e 71 05 3f 2a 4a 26 3e 6b 80 d7 3e a7 02 f1 bd
       0.5212649 0.16239229 0.42090163 -0.11768084
000260 94 a4 39 3e a9 07 b4 3d 9a 15 5b 3e 17 8f de bc
       0.18129188 0.087905236 0.21394959 -0.02716784
000270 c7 30 43 be b6 00 65 3e cf 6f 34 3e e5 fd a0 3d
       -0.19061576 0.22363552 0.17620777 0.078609265
000280 1c 08 58 3e 34 ba 0b 3e 39 51 0d bd b5 9a e3 3d
       0.21096843 0.1364525 -0.034501288 0.111134924
000290 c9 be 99 3d ef 95 73 be be a6 a4 bd f3 65 04 3e
       0.075070925 -0.23787664 -0.08039616 0.12929516
0002a0 04 af 85 3a b8 1a bb bd 67 8a a3 3b df 8b b4 bd
       0.0010199253 -0.091359556 0.004990864 -0.08815741
0002b0 f2 b1 70 be 37 e0 16 3e 3e ca 37 be 11 de a2 3d
       -0.23505381 0.14733969 -0.17948243 0.07952512
0002c0 0e 76 56 3e 05 92 3f 3e 5d 1f 5e 3d 02 84 ea 3d
       0.20943472 0.18708046 0.05422913 0.1145096
0002d0 36 25 26 bd 11 b3 d1 3d 40 d1 38 3d 8f 34 21 be
       -0.04056283 0.10239232 0.04512143 -0.15742706
0002e0 2f 0d 40 bd 09 d2 4c bc 81 67 c8 3d c0 8b c8 bd
       -0.046887573 -0.012501248 0.09785367 -0.0979228
0002f0 5d 10 17 3e 03 18 7e bd d2 f7 48 bd d8 f4 f5 bd
       0.14752336 -0.062034618 -0.049064465 -0.12009591
000300 f0 51 06 bf 52 36 58 3f 74 d1 3a 3c 68 ed 63 3e
       -0.52468777 0.84457886 0.011402477 0.22258532
000310 08 9a 38 3e de b8 3e bd 2b 51 02 3e 58 9d 37 3d
       0.18027508 -0.04656302 0.12726276 0.04482779
000320 05 44 bb be d6 b5 03 3f 36 58 31 3d a8 eb e0 3e
       -0.36575332 0.51449335 0.043297015 0.4392979
000330 2d f9 08 3e d9 42 da be dd eb ba be 6e 2b ac be
       0.13376303 -0.42629126 -0.36508074 -0.33626884
000340 55 dd fe 3e 98 80 09 3e bb 14 7c be b1 20 ad be
       0.49778238 0.13427961 -0.24617283 -0.33814004
000350 d0 be bf be e6 ec b4 bd 06 7b 01 3e cb 46 66 3e
       -0.37450266 -0.08834247 0.12644586 0.22487943
000360 16 c3 0d bf be ed 9e 3e fc 3a d4 3d f3 ab 21 3e
       -0.553758 0.31040758 0.10362813 0.1578825
000370 41 69 ce 3e c8 39 71 3e c3 20 cd be c5 91 de be
       0.40314677 0.23557198 -0.40064058 -0.43470588
000380 ec 35 07 bb 7d 19 51 3e 04 af b4 be a5 66 9a be
       -0.0020631505 0.2041988 -0.35289776 -0.30156437
000390 bd c0 f0 3d 66 34 a8 3e 93 cf a7 be b9 50 e3 bc
       0.11755512 0.32852477 -0.32775554 -0.027748452
0003a0 ab ff aa 3c 4f d3 be 3e ae a0 0b 3e 77 e2 7b be
       0.020873865 0.3727059 0.13635513 -0.24598108
0003b0 44 0e b8 3e 78 b4 6b be 29 4a 8a bd d2 bc 9a be
       0.35948384 -0.23018062 -0.06752426 -0.30222183
0003c0 95 8d 7c 3e e1 a7 d4 bd e2 68 a1 3d 6b f3 86 3e
       0.24663384 -0.10383583 0.07881333 0.26357588
0003d0 c9 7b ee 3e ff a2 1a be 87 c0 83 be 14 52 11 bd
       0.46578816 -0.1510124 -0.25732824 -0.035478666
0003e0 36 46 90 bd 5e a7 54 3e ad 68 ef bd ca 76 d2 bd
       -0.07044642 0.2076697 -0.11689887 -0.102765635
0003f0 c2 3e 61 be 6c 87 4a 3e 0c 37 69 be 14 13 b8 3e
       -0.21996596 0.19778222 -0.22774905 0.35952055

context_transformer_0/kq_shared_bottleneck/norm/mul;context_transformer_0/kq_shared_bottleneck/norm/add;context_transformer_0/attention/key/einsum/Einsum;context_transformer_0/attention/key/add;context_transformer_0/attention/value/einsum/Einsum;context_transformer_0/attention/key/add/ReadVariableOp/resource f4 [32]
000000 3e 83 e0 bb 6c f4 15 be 3b db 99 3c 8f 7b 9b bd
       -0.006851583 -0.14644021 0.018781295 -0.07591926
000010 48 9e bc bd 55 94 f5 3b d1 84 2e 3d 01 27 89 3d
       -0.09209877 0.007494489 0.042607132 0.066968925
000020 5b 9a 09 3e 8d 8e 02 be de 36 ae bd e9 72 f2 bd
       0.13437788 -0.12749691 -0.08506559 -0.118383236
000030 2f 92 cc bd 50 a8 26 3e 03 ea 89 bd f7 42 11 be
       -0.0998882 0.16275144 -0.06734087 -0.14185701
000040 c1 7c 8d 3d b2 62 21 bd 31 a5 a2 3c c4 74 71 3c
       0.069085605 -0.039400764 0.01985416 0.014737312
000050 a0 09 9b 3d a5 26 f7 3b f1 46 b1 bb 56 e2 26 3d
       0.07570195 0.0075424486 -0.005410068 0.040743195
000060 4f 60 4d be 70 fe 5d 3e 2d b8 01 3c 03 ee d4 ba
       -0.2005627 0.21679091 0.007917446 -0.001624525
000070 72 c2 ac bd 10 8d 0f 3e 96 c8 46 be 24 6a 4c 3e
       -0.08435525 0.14018655 -0.19412455 0.19962364

context_transformer_0/kq_shared_bottleneck/norm/mul;context_transformer_0/kq_shared_bottleneck/norm/add;context_transformer_0/attention/key/einsum/Einsum;context_transformer_0/attention/key/add;context_transformer_0/attention/value/einsum/Einsum;context_transformer_0/attention/key/add/ReadVariableOp/resource1 f4 [32, 32]
000000 af d0 8f be 07 43 4c 3e 81 eb 3b 3e 4c 32 70 be
       -0.280889 0.19947444 0.18351556 -0.23456687
000010 d4 c8 b6 3d 50 3e e3 bc 0e 98 e5 bd 08 78 97 bd
       0.08925024 -0.027739674 -0.11210643 -0.07395941
000020 38 ba ca bc 0a c6 3e 3e 4d e7 e3 3d 90 b4 fc bd
       -0.024747 0.18630233 0.111281015 -0.12339127
000030 ef b8 9c 3d 75 f4 2e be 80 e3 95 be 9c 47 2f bd
       0.07652461 -0.1708544 -0.2927513 -0.0427929
000040 5d 29 4e bd c4 35 2f be ce 7f 27 3e 03 d4 ef bb
       -0.050332416 -0.17110354 0.16357347 -0.007318975
000050 c4 90 14 be de d5 b8 3c 40 e1 82 be c2 c1 5c 3e
       -0.14508349 0.022562917 -0.25562477 0.21558288
000060 8e a1 80 3d ae 87 66 3d 99 03 2f 3e 96 80 09 be
       0.06280814 0.056281738 0.17091216 -0.13427958
000070 62 71 6f bd 8b fe 81 3d 7c f6 69 3e f4 33 cc be
       -0.05845774 0.06347378 0.22847933 -0.39883387
000080 9d b3 d0 be e6 48 6c 3e be bd 83 be d3 6d a1 3e
       -0.40762034 0.23074684 -0.257307 0.31529102
000090 bf de 89 be 3d fb b5 3d 78 48 9a 3d e6 76 11 be
       -0.26927754 0.088858105 0.075333536 -0.14205512
0000a0 8f 52 1b be f6 06 fa bd 58 e1 ee bd 2c da d4 bb
       -0.15168212 -0.12208359 -0.11664075 -0.0064957347
0000b0 bd 8d 0c 3e be 92 32 3e 29 01 35 3e 5f 03 75 3e
       0.13725944 0.1743879 0.17676224 0.23927067
0000c0 87 37 6d 3e c1 ef 24 be cd 41 6f be 58 18 2e 3d
       0.23165713 -0.16107084 -0.23364945 0.042503685
0000d0 62 52 3d 3e 8a 5a e3 3d d7 12 95 be bc 30 ac 3e
       0.18488458 0.11101253 -0.29115936 0.3363093
0000e0 8a fc f0 bd 91 3f 03 3f 2d 99 18 be 88 f9 a5 be
       -0.11766918 0.5126887 -0.14902182 -0.3241694
0000f0 f2 5d 8f 3e 26 a4 b9 bd f8 7d 4f 3c ce da c4 be
       0.28001362 -0.09064512 0.012664311 -0.38448185
000100 32 8e 9a 3d 54 21 ae be c5 db b8 bd 2f c7 3f 3d
       0.07546653 -0.34009802 -0.09026293 0.046820816
000110 ee a8 31 be ea 70 65 be 0e f9 1f 3e 19 85 b2 3d
       -0.17349598 -0.22406355 0.1562235 0.087167926
000120 82 60 f8 bb b7 40 20 bc 04 ef 4d 3d a9 76 c9 bb
       -0.007579864 -0.009781054 0.05027677 -0.0061481786
000130 fe 51 33 3e 10 a2 d4 bd 06 19 99 3d 1e 46 69 be
       0.17511746 -0.103824735 0.07475476 -0.22780654
000140 a5 06 a6 bc 60 28 86 3e b4 6f ac bd ed b4 c4 3d
       -0.02026684 0.2620268 -0.08419743 0.09604821
000150 74 0e 7f bc cb 1b 0f be 87 20 59 be ae 7f 05 be
       -0.015567411 -0.13975446 -0.21203814 -0.13036987
000160 fd 21 52 3d f4 9e ef be 42 4a 05 3e 83 2d 77 3d
       0.051301945 -0.4680096 0.13016608 0.060346138
000170 8a 5a f2 3c 64 a1 8a 3c 2c 12 15 bd 25 ad bb 3e
       0.029584188 0.01692266 -0.036394283 0.36655536
000180 b7 d9 22 bd 64 6e b8 3d a5 7b 5b bd f3 36 24 bd
       -0.03975841 0.0900543 -0.053584713 -0.040091466
000190 4b 5f 5e be 68 ac 0e be d8 8e e8 3d 22 65 10 be
       -0.21716039 -0.13932955 0.1135537 -0.14101079
0001a0 ec c2 26 bc aa 9e ac bd 3b 40 c5 3d e6 3c 24 be
       -0.010178309 -0.084287 0.096313916 -0.16038856
0001b0 c4 fe 08 3e 37 1a 28 be 67 b2 db bd f3 a6 9f bc
       0.13378435 -0.1641625 -0.10727387 -0.019488787
0001c0 9b 0e d8 3d e4 84 6c 3c d9 e1 5c bd d0 33 54 3d
       0.10549661 0.0144359805 -0.053926323 0.051807225
0001d0 a2 40 e9 ba e6 34 e3 bd ee 64 02 be e3 a2 58 3e
       -0.0017795751 -0.11094074 -0.12733814 0.21155886
0001e0 bd 31 04 3c 76 9c fc bd ad 6e ec 3d 06 0a c9 bb
       0.008068499 -0.1233453 0.11544547 -0.006135228
0001f0 24 93 e6 3d 04 95 91 3d 95 8e 2b 3e 45 dc 49 be
       0.112585336 0.071085006 0.1675361 -0.19712932
000200 63 07 78 bc 0d 29 17 3e 87 dd ea bd 13 a4 a0 3b
       -0.01513848 0.14761753 -0.11468034 0.0049023717
000210 87 d1 7a bd c9 d9 84 3d 1e 05 b8 3c 03 51 9b be
       -0.061234977 0.06486852 0.022463378 -0.30335245
000220 2c f4 0b 3e fe dc 88 bd 60 7f 34 3d ad 4c 55 be
       0.13667363 -0.06682776 0.044066787 -0.2083003
000230 06 00 4a 3e ec 83 68 be 70 08 a9 be ab b5 0a 3c
       0.19726571 -0.22706574 -0.3301425 0.008466165
000240 9f 38 8f 3d 5c 1a 99 3e 3c 8a 32 be 9e 64 78 bd
       0.069932215 0.29902923 -0.17435545 -0.06064283
000250 b2 e3 cc 3d 1c 34 11 bd 54 5e 24 be 8d 9a 59 3e
       0.10004367 -0.035450086 -0.16051608 0.21250363
000260 c8 7d 52 3e fc 1c 38 3d e4 7a 95 be 01 87 39 be
       0.20555794 0.044949517 -0.2919532 -0.18117906
000270 19 0c d1 3e c2 3c 63 3e 37 64 7b 3e 38 51 0f be
       0.40829542 0.22191146 0.24549948 -0.13995826
000280 c3 f7 aa 3e a5 3b 21 3e a4 b6 6b bc 82 b7 03 3e
       0.33392152 0.15745409 -0.014386807 0.12862971
000290 6c 8d 8f 3e 82 cd 86 3e a1 9e 54 bd e6 78 99 be
       0.28037584 0.26328665 -0.051909093 -0.2997505
0002a0 60 0e 43 3e 76 30 64 be f3 d0 97 3d 7f a0 c2 bd
       0.19048452 -0.22284111 0.07412901 -0.095032685
0002b0 a6 8b 62 be de ae aa 3d 13 d1 74 bd 71 88 8d 3e
       -0.22123584 0.083341345 -0.0597697 0.2764316
0002c0 a3 01 f7 3c f3 ad 47 3e 76 fc c2 bd c1 d7 0f be
       0.030152148 0.1949995 -0.09520809 -0.14047147
0002d0 4e 68 1f 3e 3d d2 9e 3d a3 20 df 3e 22 ed 07 3d
       0.15567133 0.077549435 0.43579587 0.03318513
0002e0 60 3d 0b 3d 8f 76 a8 3e c3 1f e8 be f0 72 15 3e
       0.03399408 0.32902953 -0.45336732 0.14594626
0002f0 b5 76 2e 3e ed d2 33 3e b8 f1 9c bd 6c b4 3b 3d
       0.1703747 0.1756093 -0.07663292 0.04582636
000300 67 aa 73 3e c3 25 aa 3b 06 f3 60 3e af 19 8d be
       0.23795472 0.00519249 0.21967706 -0.27558658
000310 a0 c5 5a 3e a8 b8 06 be 87 05 5b 3d 0d 9a 03 be
       0.2136445 -0.13156378 0.05347207 -0.12851734
000320 50 55 35 3e 86 cf a4 bd a4 2a 1a 3e 87 cc 0e bd
       0.17708325 -0.080473945 0.15055329 -0.03486302
000330 98 1d f9 bd cf b7 57 be 84 fc e6 be a2 7a 94 bd
       -0.12163848 -0.21066211 -0.4511453 -0.07249953
000340 05 93 09 bd 41 0f 2f bd 46 23 40 3e b6 ac b2 3d
       -0.033587474 -0.042739157 0.18763456 0.08724348
000350 cb 58 15 be e3 28 51 bc 58 f0 a6 3c 25 25 c1 bd
       -0.14584653 -0.012766096 0.020378277 -0.09430913
000360 17 ac 90 3c e6 08 bf be 98 24 ee 3d b6 ab 9f 3e
       0.017660184 -0.37311476 0.116280735 0.31185693
000370 cf 0f 6d be 71 96 b4 3d eb 1d 21 3d 0a a7 cf 3d
       -0.23150562 0.08817757 0.039335173 0.10139282
000380 3c 8a e1 3d 09 d7 9e be 00 c6 31 ba 01 36 74 bc
       0.11012694 -0.31023434 -0.00067815185 -0.014905454
000390 22 27 17 be bf 98 6c be d7 90 f1 3d 86 2a 43 3e
       -0.14761022 -0.23105143 0.11795204 0.1905919
0003a0 81 71 e5 3b 8f 1e 1e 3d 81 8f 44 3d 4a bc 20 3d
       0.007002056 0.03860336 0.04798842 0.039242066
0003b0 a5 01 48 3e f8 2e 08 be ef 2b c4 3d 16 c8 a1 be
       0.19531877 -0.13299167 0.09578692 -0.31597966
0003c0 f1 cd c8 bd bb bd 62 3e 11 15 4a 3b 7b 2a 7d 3d
       -0.09804905 0.22142689 0.003083531 0.06180809
0003d0 28 65 49 bd 33 72 18 be 40 1e 5f be a1 62 51 be
       -0.049168736 -0.14887314 -0.21788883 -0.2044778
0003e0 86 8e 73 3d ef 94 01 bf 72 9a 8e 3e ca db 55 3d
       0.059462093 -0.5061788 0.27852207 0.05221156
0003f0 c3 72 7f bd 99 3c 02 ba 82 79 1d bd ec e4 b7 3e
       -0.062365305 -0.0004968136 -0.038445957 0.3591684

context_transformer_0/kq_shared_bottleneck/norm/mul;context_transformer_0/kq_shared_bottleneck/norm/add;context_transformer_0/attention/query/einsum/Einsum;context_transformer_0/attention/query/add;context_transformer_0/attention/value/einsum/Einsum;context_transformer_0/attention/query/add/ReadVariableOp/resource;context_transformer_0/attention/Mul;context_transformer_0/attention/Mul/y f4 [32]
000000 a9 fc 7f bd 3b cd a9 3d d8 25 b2 bd a4 27 44 bd
       -0.062496815 0.08291098 -0.08698624 -0.047889367
000010 1a 07 59 3c e6 e8 19 3e 1f f7 ed bc 3f 8c e1 bd
       0.013246322 0.1503025 -0.0290485 -0.11013078
000020 d3 be 3b be d8 de 8e bc 58 67 ad bc 7e 40 18 3e
       -0.18334512 -0.017440245 -0.021167442 0.14868352
000030 35 f0 42 3e 4c e4 58 bd 6d f0 97 bd 82 ce 37 3d
       0.19036944 -0.052952096 -0.074189045 0.044874676
000040 9b a6 3b be 6a 55 6e 3d da 92 ea bd 16 b0 d7 3d
       -0.18325274 0.058186926 -0.11453791 0.105316326
000050 7b 69 6c be db 5d fd bd 46 1d 24 bd ad 14 cb bd
       -0.23087113 -0.12371417 -0.04006698 -0.09916053
000060 21 34 b7 bd a3 60 6f be 33 41 3e be 40 82 29 be
       -0.0894549 -0.23376708 -0.18579559 -0.16553593
000070 83 3c 46 3e 9b 5d d2 3d b2 ca 89 3e 24 d1 86 be
       0.19359021 0.1027176 0.26912457 -0.26331437

context_transformer_0/kq_shared_bottleneck/norm/mul;context_transformer_0/kq_shared_bottleneck/norm/add;context_transformer_0/attention/query/einsum/Einsum;context_transformer_0/attention/query/add;context_transformer_0/attention/value/einsum/Einsum;context_transformer_0/attention/query/add/ReadVariableOp/resource;context_transformer_0/attention/Mul;context_transformer_0/attention/Mul/y1 f4 [32, 32]
000000 b7 17 62 3d a7 4f 98 3d ef d4 01 bd 53 2c 7d bd
       0.055198397 0.074370675 -0.03169721 -0.06180985
000010 ac 51 d2 bd a0 9e c1 3c fa c8 17 be 43 06 76 3d
       -0.10269484 0.023635209 -0.1482276 0.060064565
000020 45 7e 81 bc 34 8c 20 3d 71 fc a0 3a 27 df 03 bc
       -0.01580728 0.039196208 0.0012282265 -0.008048809
000030 1b 83 3c 3c 67 0a e8 bd 89 2a ee bc 6d ce 9b 3b
       0.011505867 -0.11330109 -0.029073017 0.0047548325
000040 bd 5c be bc 46 ac 11 bd 54 ee 8d bc 16 67 f5 bc
       -0.02323758 -0.035564683 -0.017325558 -0.029956382
000050 9e 06 9c bd e2 e5 85 bd ff b3 00 3e 56 ca 7b bd
       -0.0761845 -0.06537987 0.12568663 -0.06147226
000060 88 15 1d bd 39 10 c5 bb fa 5c 21 3e bb af ce bc
       -0.038350612 -0.006013897 0.15758124 -0.02523028
000070 0e f3 cc 3c c9 d4 4d bd 35 78 d7 3d 5b f5 9d bd
       0.025018241 -0.050251756 0.105209745 -0.077128135
000080 9a c9 d6 bd 01 6d 32 3e 7f 67 f8 3c 3f a4 56 3d
       -0.10487671 0.17424394 0.030322788 0.05240273
000090 96 6b b1 bd b6 5f b0 3d 56 40 e4 3d 0b 41 ad bc
       -0.086630985 0.086120054 0.111450836 -0.021149179
0000a0 07 31 c9 3c 8a 86 db bd e5 3f be bd 0d e8 e9 3d
       0.02455951 -0.10719021 -0.09289531 0.11421213
0000b0 7c 24 81 3d 42 86 43 3d 29 02 b3 bd 19 4b 01 3d
       0.06305787 0.04773546 -0.087406464 0.03156576
0000c0 ca d3 21 3c 88 1f 24 3d 13 a5 17 3c 27 cc b1 bd
       0.009877155 0.040069133 0.009255665 -0.08681517
0000d0 9f 0e 3d 3c 65 12 c2 3b 3f 32 6c be a5 48 91 bd
       0.0115391305 0.005922603 -0.23066042 -0.07093934
0000e0 35 8f ce 3d 45 a0 6e 3d 3d 7a 8f 3d f2 e9 88 bd
       0.10085908 0.058258314 0.07005737 -0.066852465
0000f0 6d da f1 3a 2d 85 32 3d c0 8f 04 bd b3 9f 3b bd
       0.0018451937 0.043584038 -0.032363653 -0.045806598
000100 22 47 c6 3c c5 bc d4 bd 07 2b 32 bd 7a 85 bb 3d
       0.02420384 -0.103875674 -0.043498065 0.09156318
000110 8c 4e ad bd d5 dd 8f bd 2e b0 95 3d dc f2 b7 bc
       -0.08462247 -0.07024733 0.07308994 -0.022454672
000120 ee 69 d3 3b 70 af 4b 3d b4 96 7c bc a5 1e 61 bd
       0.006451837 0.049727857 -0.01541679 -0.054960866
000130 a3 48 89 3d b5 3d a2 bc f1 c1 5b 3d 78 97 ba bd
       0.067033075 -0.019804815 0.053651754 -0.091109216
000140 cb 93 45 3d 04 45 97 3d d0 98 5b bd 75 6c ab 3d
       0.04823665 0.073862106 -0.05361253 0.08370296
000150 7b 82 bd 3d 49 dd d0 bc 13 68 8c bc 56 e6 60 3d
       0.09253403 -0.025496142 -0.01713947 0.054907165
000160 c0 8b 9e 3c 1d a5 85 bd 27 d6 8f bd f2 b4 7e bd
       0.019353747 -0.065256335 -0.07023268 -0.06218428
000170 82 dc 66 3b b5 d7 97 3d 58 7c 15 3d 2f b9 9a 3c
       0.0035226648 0.0741419 0.036495537 0.01888713
000180 f2 f6 13 3d 36 9f ae 3d 19 38 71 bd e8 ae 00 3d
       0.036124177 0.08526461 -0.05889139 0.031416804
000190 6c 14 02 be ed 61 b9 bb f3 e2 60 3a 7d 72 1d bd
       -0.12703103 -0.0056574256 0.000857874 -0.038439263
0001a0 ad 6c 57 3c 08 0c 87 bd 92 a3 06 3c 84 53 a8 bc
       0.013148469 -0.06594092 0.008217709 -0.020547636
0001b0 f8 d5 11 3d d8 07 9e bd 17 67 8c bc 46 62 f9 3b
       0.035604447 -0.0771634 -0.017139 0.007610592
0001c0 c6 93 06 3d 0f 8b 2c 3d 87 c8 5e bd b6 74 78 3c
       0.03285577 0.042124804 -0.054390457 0.015164545
0001d0 a5 07 bb 38 39 d4 3b bd 8e 97 ee 3c 6b fd 5f 3b
       8.918279e-05 -0.04585669 0.029125001 0.0034178148
0001e0 7a 8e e4 bc 1a dd da bc 8f e5 a4 3d c7 ac a0 bc
       -0.02789997 -0.026716758 0.08051597 -0.019613637
0001f0 bc a0 87 3c c8 8e aa 3c b9 29 88 3d 46 a1 66 bd
       0.016556136 0.020820037 0.06648583 -0.056306146
000200 0c 1a 87 3d ab 00 c2 3d 85 98 e5 bc 08 06 96 3c
       0.06596765 0.09472784 -0.028026829 0.018313423
000210 1b dd 93 bd 5f 67 49 3c 3f 89 17 bd 77 c5 83 bd
       -0.07219907 0.012292712 -0.036996122 -0.06434148
000220 61 83 97 3d 68 b4 1f bc 3c 26 52 bb 69 9a 65 bd
       0.073981054 -0.009747602 -0.0032066246 -0.05605546
000230 9c 04 a4 3d 6d a6 18 be 80 99 2e bd 9f a6 bd bc
       0.08008692 -0.14907236 -0.042626858 -0.02315074
000240 d3 a7 cf bc 83 2a fb 3d c8 10 81 bd e3 25 d7 bc
       -0.02534858 0.12263968 -0.06302029 -0.026263183
000250 0b c7 7e 3c b2 59 4c bd 37 c8 d7 3c d9 8c 5a 3c
       0.015550385 -0.049890228 0.026340587 0.013339245
000260 00 be a3 3d 7a 1a c0 bc 94 34 70 bc 90 d0 c0 bd
       0.07995224 -0.023450125 -0.014660973 -0.0941478
000270 bd 15 48 3d a2 11 c4 3d cf 3c fe 3d f9 50 12 bd
       0.048848856 0.09573676 0.12413942 -0.035721753
000280 76 1c 01 3d 37 a4 b8 3c a6 84 8a 3d 0d dd 39 3c
       0.031521283 0.022539241 0.06763582 0.0113442065
000290 10 ab 69 3e 89 5f a4 bc a6 d8 69 3d 0c 98 05 be
       0.22819161 -0.020065086 0.057091378 -0.13046283
0002a0 c9 96 c3 3d a8 1d a9 bd 85 af 9a 3d 1a e7 e7 bc
       0.09550244 -0.082576096 0.07553009 -0.02830844
0002b0 2a cc 58 bd 5a 94 d3 3c da 73 53 bd 38 3e 1b 3c
       -0.05292908 0.025827575 -0.051624157 0.009475283
0002c0 01 96 59 bd 39 26 41 3d 6b 56 1e bc fa af b2 bc
       -0.05312157 0.047155593 -0.009664158 -0.021812428
0002d0 88 2e e0 3c e9 a4 2c 3d 32 da 57 3a a5 68 8b 3d
       0.027365938 0.042149458 0.0008234113 0.06807069
0002e0 f3 3c 98 3d 86 61 04 3c d3 69 17 be 81 3a 2f 3d
       0.074335 0.008079892 -0.14786462 0.042780403
0002f0 9c a3 17 bc ed 2a 92 3d bc 3b b2 bc 60 e4 27 3d
       -0.009255316 0.07137094 -0.021757 0.04098928
000300 0f d8 93 3d a3 70 31 bd fb 3a 85 bc cb 45 b1 bb
       0.07218944 -0.04332031 -0.016263476 -0.0054099313
000310 73 b5 56 3d 95 ee bd bd fb ec 8b bd 74 15 e0 b9
       0.052419137 -0.092740215 -0.0683231 -0.00042740593
000320 df 8d 8e bb 00 66 05 3d 68 06 57 3d 0f 9e 64 bd
       -0.0043504084 0.032567978 0.052496344 -0.0558148
000330 9b 0b 03 3a 8d 30 b5 bd 4a 61 aa 3d 41 2c 36 bd
       0.0004998983 -0.08847151 0.08319338 -0.044475798
000340 26 4e 73 bc 98 ed 67 bd 40 bd 41 bd 99 eb a5 3d
       -0.014850175 -0.05662307 -0.047299623 0.08101577
000350 4e 1c b2 bc 60 f6 18 bd 92 21 3b 3e 6b c4 aa 3d
       -0.021742012 -0.037344337 0.18274525 0.08338245
000360 44 20 da bd 72 a9 bb bd 42 81 8a 3d c7 8d c3 3c
       -0.106506854 -0.091631785 0.06762935 0.023871316
000370 2b e6 c5 bc 69 a5 fe bb 24 8b c6 3d 39 50 d1 bb
       -0.024157604 -0.0077711833 0.09694508 -0.006387737
000380 95 e3 2c 3d 35 1b e5 bd e7 7f 2f bd 58 67 8f 3d
       0.042209227 -0.1118683 -0.042846587 0.07002133
000390 10 22 d5 bd 31 88 5f bd ea db e2 3c 41 73 04 3d
       -0.104068875 -0.05457324 0.027692754 0.032336477
0003a0 60 2a b7 bc 63 27 bc 3d 11 75 83 bc 72 32 90 bd
       -0.022359073 0.091872 -0.016047033 -0.07040872
0003b0 5f c7 78 3d 39 3a 79 bc bb 91 53 3d 3f 63 9b bd
       0.06073701 -0.015211635 0.05165265 -0.07587289
0003c0 83 b3 45 3d 29 2a 66 3d f3 f1 0f bd 7c 0c 9e 3d
       0.0482669 0.05619255 -0.03514285 0.07717225
0003d0 4a 3f 93 3d e2 54 a4 bc 22 66 1e 3d 8d c2 b0 3c
       0.07189806 -0.020060007 0.03867162 0.021577144
0003e0 20 ad 06 bd b8 37 90 bd 87 28 40 bd 0c 9c fa bc
       -0.03287995 -0.070418775 -0.04691365 -0.030591987
0003f0 d9 d0 c3 b9 b6 79 d0 3c 1b 40 ef 3c ed 58 a3 3c
       -0.00037348902 0.025448661 0.029205373 0.019939864

context_transformer_0/ffn_layer_0/intermediate_dense/einsum/Einsum;context_transformer_0/ffn_layer_0/intermediate_dense/Relu;context_transformer_0/ffn_layer_0/intermediate_dense/add f4 [32]
000000 15 dc a1 be cc 98 8f be 68 21 88 be 00 51 8a bc
       -0.31613222 -0.28046262 -0.26587987 -0.016884327
000010 cc 01 92 bd ae 96 69 bb 90 3f 53 be ba 22 aa 3d
       -0.07129249 -0.003564279 -0.20629716 0.08307405
000020 c3 13 98 be 4d 90 ec be cb 82 99 be 99 d9 6d be
       -0.29702577 -0.46203843 -0.299826 -0.23227538
000030 10 6a d7 bd 75 29 b1 bc 40 80 90 be 5e 3f b9 be
       -0.10518277 -0.021626214 -0.28222847 -0.36181158
000040 df ff 23 be ce 1f 20 be 51 c4 2c be 9e 8b 56 be
       -0.16015576 -0.15637133 -0.16871764 -0.20951697
000050 31 66 a1 be 5e a5 b4 be 5e d1 2f 3d d5 43 5b be
       -0.31523278 -0.35282415 0.042924277 -0.21412595
000060 6e 4d ac bd b7 b7 37 be b6 73 21 be 07 53 11 be
       -0.08413206 -0.17941175 -0.15766796 -0.14191829
000070 2c 23 93 be 47 e3 c9 bd d9 3f be be 22 20 c9 bc
       -0.28737772 -0.09857803 -0.37158087 -0.024551455

context_transformer_0/attention/norm/mul;context_transformer_0/attention/norm/add;context_transformer_0/ffn_layer_0/intermediate_dense/einsum/Einsum;context_transformer_0/ffn_layer_0/intermediate_dense/Relu;context_transformer_0/ffn_layer_0/intermediate_dense/add f4 [32, 32]
000000 df be bb bd a0 e3 06 be 57 10 63 3d e3 c9 9d bc
       -0.09167265 -0.1317277 0.055435505 -0.019261306
000010 17 1e 4d be 28 e6 32 3e 82 f5 71 bd 25 cc 4a 3e
       -0.2003101 0.1747061 -0.059072025 0.19804437
000020 2e c3 f9 3d 94 d4 b5 3e aa da a9 be c0 e4 81 be
       0.12195431 0.35513747 -0.3317464 -0.25369835
000030 e5 33 bf 3c f8 84 81 3c 36 1b ea 3d bd 19 b8 be
       0.023340175 0.015810475 0.11430971 -0.35957137
000040 0b 55 cd 3c c4 dd d0 3c 1f 6c 0d 3e 16 31 38 3e
       0.025064966 0.025496371 0.13810776 0.17987475
000050 d4 77 66 bd 9b 9e 18 be b6 67 58 3e e1 e6 b8 3d
       -0.05626662 -0.14904253 0.21133313 0.09028412
000060 35 3d 11 be 15 fb 26 3b 23 83 94 3d 91 55 a4 bd
       -0.14183505 0.0025479246 0.07251575 -0.08024133
000070 47 3e 77 be 1c 96 88 3e 61 0f f3 3d f0 40 8c bd
       -0.2414485 0.26677024 0.11868168 -0.06848323
000080 2e f6 99 3d 3a 59 79 3d 27 f3 19 3e 93 94 a7 3e
       0.07517658 0.06087611 0.15034162 0.3273054
000090 24 d8 c8 3d e7 de fd 3d 99 30 20 3e e9 a7 12 3e
       0.098068506 0.12396031 0.15643539 0.14321865
0000a0 15 1a 66 3e 25 3f 27 be d2 4d 36 3e 10 7a 5e 3d
       0.22470887 -0.16332681 0.17803124 0.054315627
0000b0 d3 58 80 be b1 1b d8 3d 3e 37 1b 3e 37 0e 3c be
       -0.25067768 0.10552157 0.15157792 -0.18364798
0000c0 33 d9 6f 3e e9 ee a3 bd 8f 4c 0c 3e 2f 06 9e 3d
       0.23422699 -0.08004553 0.1370108 0.07716023
0000d0 6a 4d b3 3c 41 30 0c 3d 0a 12 31 be 51 cc 86 be
       0.0218875 0.034225706 -0.17292038 -0.26327756
0000e0 d9 7a 22 be b6 4d 1a 3d 50 f5 f3 3d dd ea 08 be
       -0.15867175 0.037671767 0.11912024 -0.13370843
0000f0 6b 79 ea bd ba 8a 63 be ac 23 f3 be 98 f6 8f 3d
       -0.1144894 -0.22220889 -0.47488153 0.07029456
000100 e6 d9 3b 3e 72 39 01 3d 72 ab a6 bd d2 54 05 be
       0.1834484 0.031548925 -0.08138169 -0.13020638
000110 3d 17 ab 3d e5 d1 30 bd d9 52 79 3e a7 1e c8 3c
       0.08354042 -0.04316892 0.2434801 0.024428679
000120 6f 08 e6 bb 1a ba cb be ef 0c ac 3e 6d 57 5d bc
       -0.0070200483 -0.39790422 0.33603618 -0.013509613
000130 e1 7b db 3d 57 dd 31 3e 8d 51 ce bd 68 5c 9b 3e
       0.107169874 0.1736959 -0.10074148 0.30343938
000140 f6 a3 6f bd a1 8e 4b bd 3d 10 7f be 75 2b 06 be
       -0.058505975 -0.04969657 -0.24908538 -0.13102515
000150 f5 00 f3 3d a4 fb 93 bd 93 72 55 be 0c 17 ed 3e
       0.11865417 -0.07225731 -0.20844488 0.46306646
000160 4d bc 1c be 70 71 84 3e a9 9b 4a be 68 ff 23 3e
       -0.15306206 0.25867796 -0.19785942 0.16015399
000170 5d 16 1f 3e f4 52 dd bd 08 8a e7 3b 06 e3 c5 be
       0.15535875 -0.10806838 0.007066015 -0.38649768
000180 fe 37 30 bd 1a 1a a2 be 2a a6 df 3d 9a 2d 9a 3e
       -0.04302215 -0.3166054 0.10920365 0.30112916
000190 ae f0 92 be fd 08 8d 3d 83 f5 88 3d cd 72 c3 3d
       -0.2869925 0.0688648 0.06687453 0.09543381
0001a0 98 6e 87 be 2e d3 6b 3e 8e 1d 5b 3e 18 7a 82 3e
       -0.26451564 0.23029777 0.21397993 0.25483775
0001b0 b2 c0 ab bc 8d 04 76 3e 1f 03 05 be bf aa 06 be
       -0.020965908 0.24025173 -0.12989472 -0.13151072
0001c0 a8 9b 8d be 85 a7 77 3d db 56 74 3d 13 e3 25 3e
       -0.2765782 0.060462493 0.059653144 0.16199903
0001d0 9d 80 d8 3e e8 ce 30 3e fd 72 0c be 43 6f 74 3d
       0.42285624 0.17266428 -0.1371574 0.05967642
0001e0 92 99 0a be 94 17 c2 3d 6e 9d 8d be 78 8d 9b 3c
       -0.13535145 0.094771534 -0.27659172 0.018988356
0001f0 11 39 00 3e bc 3a 97 3c 6b 45 c9 bd ed 97 65 3d
       0.12521769 0.018460624 -0.098276936 0.05605309
000200 e1 91 47 3d 38 03 50 3e 5c 6c 19 be 39 1b 0e 3e
       0.048723105 0.20313728 -0.14982742 0.13877572
000210 2b 28 60 be e2 46 30 be 72 dd 81 be 21 70 9b 3d
       -0.21890323 -0.1721454 -0.25364262 0.07589746
000220 3b df 13 3e 84 e2 b3 3d 96 9c ac be 74 08 17 bd
       0.14440624 0.08783439 -0.33713216 -0.036873296
000230 7e 0f 17 be f6 5f 7f 3e e3 09 a3 3e fc 60 cb be
       -0.14752004 0.2493895 0.3184348 -0.3972243
000240 26 93 eb 3c 85 5a 89 3e af 3b b2 3d ba 07 10 be
       0.02875669 0.26826873 0.0870279 -0.14065447
000250 f4 03 25 be 99 c3 16 3e 49 cf 06 bd 4a a1 bd be
       -0.16114789 0.14723052 -0.032912526 -0.37037116
000260 3c 48 9f be db b1 48 3d fb 54 5d 3e c1 9d 46 bd
       -0.31109798 0.04899774 0.21614449 -0.04849029
000270 e3 ed d1 3e 39 ea 37 3e 15 22 7a 3b 77 11 ce 3e
       0.41001806 0.17960443 0.0038167287 0.402477
000280 57 08 79 bd 21 aa eb bd 90 f1 df bd ac b4 10 bd
       -0.06079897 -0.11507059 -0.10934746 -0.035328552
000290 8d e4 20 3e 81 27 e7 be ea 5c 12 3e 87 5a 18 be
       0.15712185 -0.45147327 0.14293256 -0.14878283
0002a0 1a f1 23 bd 14 b0 47 be fe be 8c bc 76 85 a6 3d
       -0.040024854 -0.19500762 -0.017180916 0.081309244
0002b0 3d d7 4f 3e 92 13 9b 3e d0 3e 4a be b2 23 9e bc
       0.2029695 0.30288368 -0.19750524 -0.01930413
0002c0 e6 03 99 be cd 0c 1f be 89 53 fe bc 04 2f 81 3d
       -0.29885787 -0.15532227 -0.031045692 0.06307796
0002d0 2a 63 bb 3d fb 66 a6 bd 0c ca 9c bc ce 4d f9 3d
       0.091497734 -0.08125111 -0.019139312 0.12173043
0002e0 d4 8d 39 be ee a0 23 be 70 87 cc bd 21 54 b0 bd
       -0.1812051 -0.15979359 -0.0998677 -0.08609796
0002f0 e3 a0 00 be 91 62 04 3e 27 a9 2e bd 86 37 fd 3d
       -0.12561373 0.12928225 -0.042641785 0.12364106
000300 2a 5c fa 3e 88 8f 4d 3e 60 30 ff bc 56 be d4 be
       0.4889844 0.20074284 -0.031150997 -0.41551465
000310 4b f4 5b bb 2e ee 1e be ed b1 dd 3d 61 f4 a2 be
       -0.0033562358 -0.15520546 0.10824952 -0.3182707
000320 36 60 90 be 81 f8 14 bd 62 17 34 be 06 2b 38 be
       -0.28198403 -0.036369804 -0.17587045 -0.17985162
000330 cd d1 94 be 15 0a 7c 3d e9 a5 f3 bd d2 33 14 be
       -0.29066315 0.061533052 -0.11896879 -0.14472893
000340 73 e8 e3 bd 74 fd 55 be 2d 5e 7e bd d7 23 dc bd
       -0.111283205 -0.20897466 -0.06210153 -0.107490234
000350 d5 15 4b 3e d5 2a 02 3d ef b4 00 3e 20 17 92 3d
       0.19832547 0.03177913 0.1256902 0.07133317
000360 ce c4 6c be 37 b5 83 bd 24 3b cf bc 5e 03 60 3d
       -0.2312195 -0.06431048 -0.025296755 0.05469071
000370 30 73 bc 3e 24 58 cf 3d cf 60 2d 3d f6 8b 93 3e
       0.3680663 0.10124233 0.042328652 0.2881772
000380 ab 15 4f bd 09 84 5c be a3 be 5d 3d 05 00 73 3d
       -0.050557774 -0.21534742 0.054136883 0.05932619
000390 ad cb 37 3c 4d 0e cf 3d f1 91 2f 3e ef 00 b5 3d
       0.011217994 0.101101495 0.17145516 0.08838069
0003a0 79 e8 e8 3d ea 65 51 bd 91 20 26 3e ff c5 7b bc
       0.11372466 -0.051122583 0.1622336 -0.01536703
0003b0 42 4e 4a be de 78 00 3d 1c b9 78 3d 99 e2 85 be
       -0.19756415 0.031365268 0.06072341 -0.26149443
0003c0 70 68 cf bd 8b ed f8 bd 3b 64 b7 3e e3 0b 34 be
       -0.10127342 -0.12154683 0.35818657 -0.1758266
0003d0 70 7b 95 3e 3b 6d 3e 3e 3e 6c 32 3d e7 9b c4 bc
       0.29195738 0.18596356 0.04356026 -0.024000121
0003e0 8b f1 3a 3e d6 39 eb be 6e cb 02 bd 88 01 ce 3d
       0.18256204 -0.45942563 -0.031932287 0.10058886
0003f0 29 e9 94 be e5 91 64 3e 83 f3 99 be d0 6f 7a 3c
       -0.29084137 0.2232128 -0.30068597 0.015285447

context_transformer_0/ffn_layer_1/intermediate_dense/einsum/Einsum;context_transformer_0/ffn_layer_1/intermediate_dense/Relu;context_transformer_0/ffn_layer_1/intermediate_dense/add f4 [32]
000000 ed ec 3e be c4 d0 2a be 16 37 c4 bd 78 53 86 be
       -0.18645068 -0.166812 -0.09580819 -0.26235557
000010 ac 4e da bd 82 bf 41 be eb 98 cc be a9 8a 9e be
       -0.10659537 -0.1892071 -0.39960417 -0.30965164
000020 ad 34 be bd 5d d8 90 bc 9a cf 64 3d 5e 8e 93 be
       -0.09287391 -0.017681295 0.055862047 -0.28819555
000030 b3 11 7b bc b5 4b b9 be f7 38 95 bd ce 54 15 be
       -0.015324044 -0.36190572 -0.07286256 -0.14583132
000040 8b 49 03 be f7 e8 4a be 25 99 cc be a8 33 50 bd
       -0.12821023 -0.19815432 -0.3996059 -0.050830513
000050 8a f8 87 be a5 2d 30 bc 1c 38 1c be 6b f8 ac bd
       -0.26556808 -0.01075307 -0.15255779 -0.084458195
000060 89 4b 85 be ee 99 02 be 76 2d 3b be ce 5d b7 be
       -0.2603419 -0.12754032 -0.1827906 -0.35813755
000070 e9 05 ea be 08 00 d5 3c bc e3 28 be 6c dc 3a be
       -0.45707634 0.026000991 -0.16493124 -0.18248147

context_transformer_0/ffn_layer_0/norm/mul;context_transformer_0/ffn_layer_0/norm/add;context_transformer_0/ffn_layer_1/intermediate_dense/einsum/Einsum;context_transformer_0/ffn_layer_1/intermediate_dense/Relu;context_transformer_0/ffn_layer_1/intermediate_dense/add f4 [32, 32]
000000 1e 2c 91 be da 8b e5 bd 89 19 54 be a5 86 2d 3d
       -0.2835397 -0.11208315 -0.20712866 0.042364735
000010 04 1c f7 bc 7c 6f e0 3d f7 e3 cb 3d 66 76 2e bd
       -0.030164726 0.10958764 0.0995559 -0.042593382
000020 3b 6d 5a 3d f3 54 10 be 36 33 5f 3e e7 d4 11 be
       0.053326827 -0.14094906 0.21796879 -0.14241372
000030 09 c1 a3 3d f5 92 e3 3d 04 3d d0 bd 12 47 60 3d
       0.07995803 0.11112014 -0.10167888 0.054755278
000040 45 b1 76 be 1a 92 d0 3d ad da 93 be 63 49 0f be
       -0.2409106 0.10184117 -0.28877774 -0.13992839
000050 10 0f 3c 3e c7 2a 4e 3e 7a 69 7c be 81 8f 86 be
       0.18365121 0.20133506 -0.24649611 -0.2628136
000060 20 07 8f bc 58 0b 76 be 6e 5a 5a 3e 68 9d 5d be
       -0.017459452 -0.24027765 0.21323559 -0.21642077
000070 bc 43 a0 be 00 3c 44 be 35 35 27 3d cd 6f 47 3d
       -0.31301677 -0.19163513 0.040822227 0.048690606
000080 48 5e 31 3e 8f 57 1c 3e 5a ba 85 3d 66 c2 a7 3d
       0.17321122 0.15267776 0.06529684 0.081913754
000090 6d f1 87 3d b5 c4 0c be 81 82 50 3d d6 be 5a 3e
       0.06637845 -0.13746913 0.05090571 0.2136186
0000a0 1c 37 83 be d7 eb b6 3d 3a bd be 3e e0 43 a2 3d
       -0.25627983 0.08931702 0.37253743 0.079231024
0000b0 be 7b 02 3e f1 f1 50 ba 1f f9 ea bd de c1 05 3e
       0.12742516 -0.00079706224 -0.11473297 0.13062236
0000c0 81 c1 0e be 5d 64 1e be 32 e5 d9 bd 4c 9a 63 3e
       -0.13941003 -0.15467973 -0.10639419 0.22226828
0000d0 ad f3 d3 3c e9 f2 e8 bd 94 cd 50 bc e3 c1 e8 3d
       0.02587303 -0.113744564 -0.012744326 0.11365106
0000e0 dd 03 74 be 63 76 77 bd e0 7a 9d bd 47 e4 86 3e
       -0.23829599 -0.060415637 -0.07689452 0.26346037
0000f0 75 f5 27 3e cc b0 c5 3e 40 76 a3 be a1 2d b5 bd
       0.16402228 0.38611448 -0.31926155 -0.08846594
000100 64 c8 a9 bc 6c 5b a8 3c 41 df 9a 3e f0 7f f3 bd
       -0.020725437 0.020551406 0.30248454 -0.118896365
000110 b1 54 0c be 2d 9c 87 3e 1d 9d 79 be 31 36 e0 bd
       -0.13704182 0.2648634 -0.2437634 -0.10947836
000120 ec cc 55 3e fb 8c ad bd a3 a7 b9 3d 8b f3 8f 3e
       0.20878953 -0.084741555 0.09065177 0.28115496
000130 43 ec 34 be f2 f8 79 be d5 04 84 be 78 8b 10 be
       -0.17668252 -0.24411371 -0.25784937 -0.14115703
000140 a0 39 84 be ba 98 83 bd 04 d1 ab 3e 0a 3a 24 3e
       -0.25825214 -0.06425615 0.33557904 0.16037765
000150 11 80 a1 3e 1b 2c af bc 9f 43 63 bd eb 7f c5 bc
       0.3154302 -0.021383336 -0.05548441 -0.024108848
000160 25 b5 56 be 70 a3 86 bd 71 a8 a8 3e ed 42 b0 be
       -0.20967539 -0.06574142 0.3294101 -0.3442606
000170 5f a6 89 3e f9 ef 4c 3e 31 28 a0 be fe ea 94 3e
       0.26884744 0.20013417 -0.31280664 0.29085535
000180 0e e8 b7 3d fc e3 d1 bd d4 f8 5c be 42 90 11 3e
       0.08979808 -0.10248563 -0.21579295 0.14215186
000190 b4 ba f6 be 4b 2a 8d bd 53 f8 41 3e a3 dd 00 3e
       -0.48189318 -0.06892832 0.18942384 0.12584548
0001a0 a1 76 1a 3e c0 d2 b8 bd 4c 2e 7a bd 85 ae 84 be
       0.15084316 -0.09024572 -0.06107931 -0.25914398
0001b0 51 ee 3a 3d ce b4 be 3d d0 56 a6 be 1b 78 78 3d
       0.045637432 0.093118295 -0.32488108 0.060661417
0001c0 34 ee 2b be 53 32 ac bd 01 22 12 3d 14 6a 17 be
       -0.16790086 -0.08408036 0.03567696 -0.1478656
0001d0 8d 2c 1b be 0c 07 55 be 9f 89 90 bd 2d 84 2c 3e
       -0.15153714 -0.2080347 -0.07057499 0.16847296
0001e0 12 80 8a bd 83 f3 6e bd 0a e3 15 bb d9 00 db bc
       -0.06762709 -0.0583377 -0.0022870922 -0.026733803
0001f0 30 7d 2d be 88 96 6d 3c ac 64 e3 3d 49 1e ac bc
       -0.16942286 0.0145012215 0.11103186 -0.021010535
000200 28 1f 9e 3d 88 e0 8f be 15 67 74 be 0f 8d aa 3e
       0.07720786 -0.2810099 -0.23867448 0.33310744
000210 4f fc 35 be 88 cc a6 be 66 da a7 be ff f9 19 3e
       -0.1777203 -0.3257792 -0.32783812 0.15036772
000220 79 a7 f5 3e e1 6f cd bd 76 d3 67 bc eb f6 3a be
       0.47979334 -0.10031105 -0.014149537 -0.18258254
000230 6f 48 8d bd 1f d0 39 bd a9 d4 9a 3d 8d 2d 0f 3d
       -0.06898581 -0.045364495 0.07560093 0.03495555
000240 69 a1 25 3d dc 50 4e 3d f6 4a 84 3e 93 47 93 bd
       0.040437136 0.050370082 0.2583844 -0.07191386
000250 c1 85 38 3d a8 e2 2d be f7 bf 47 bd d1 6e 55 be
       0.045049433 -0.16980994 -0.048767056 -0.20843054
000260 ed 4e 57 3a d4 d7 1f 3e 48 2a 7e 3e d8 03 0d be
       0.000821336 0.15609676 0.24820817 -0.13770998
000270 b6 b8 ed 3d 92 6e 17 3e 44 80 81 bd 51 27 5f 3e
       0.116074964 0.14788273 -0.06323293 0.21792342
000280 02 8e 80 bd 02 7a 0e 3b 6c 71 6a 3d 06 cb ce bd
       -0.06277086 0.0021740203 0.057237074 -0.100973174
000290 69 c5 be 3b 8e 6a 58 3e 17 08 dd be d2 56 a9 3b
       0.005821873 0.21134397 -0.43170235 0.0051678205
0002a0 20 d5 84 bd de b1 99 bb ab 27 d1 be 2b 3e c2 3e
       -0.06485963 -0.004690393 -0.40850577 0.37938055
0002b0 69 d2 75 be a6 e4 40 be 66 77 71 be 3a a8 3c 3c
       -0.24006046 -0.18837222 -0.23580703 0.011514718
0002c0 e3 75 cd bc 71 c2 19 3e f8 13 87 3e 73 81 e4 bd
       -0.025080627 0.1501558 0.26382422 -0.11157503
0002d0 5f 0a a9 3c 6b e3 d8 bd ef 5c 8b bc 53 91 a6 3e
       0.020634828 -0.105902515 -0.017012088 0.3253275
0002e0 1e 0f da 3e 21 3b 50 bd 8f 8f 7e be e7 f8 8a 3e
       0.42589658 -0.05083764 -0.24859451 0.27143022
0002f0 41 50 63 be e2 1f b3 3e c9 fe d8 bd ef f1 a3 bd
       -0.22198583 0.34985262 -0.105954714 -0.080051295
000300 31 38 94 bd 8d 28 02 3e 8d 24 89 be 32 96 dc bd
       -0.0723728 0.12710781 -0.267857 -0.10770835
000310 2b ce 38 be 57 1a a8 3d 82 be bc be fa 12 bb 3d
       -0.18047397 0.08208149 -0.36864096 0.09134479
000320 7a 96 52 3d a0 82 d1 3d 87 de 74 be 4c cc 05 3d
       0.051413037 0.10229993 -0.23913012 0.032665536
000330 7e 46 32 3d d2 ce a0 bd 88 df 2a 3d 56 fc 77 3e
       0.043524258 -0.07851948 0.041717082 0.24217352
000340 dc 27 04 3e cb 8e 13 3e a1 ed 1f be 63 89 03 bc
       0.1290583 0.1440994 -0.15617992 -0.008028361
000350 c1 a2 14 be 6f ad 86 be 33 6e 4c 3e 86 da 44 bd
       -0.1451521 -0.26304194 0.19963913 -0.048059963
000360 1c 54 3c 3d 2c 7b ee 3e 81 11 a3 3c fb 50 89 be
       0.04597865 0.46578348 0.019905807 -0.26819596
000370 7f c1 f0 3c 71 78 b0 3d 6c ec 66 3d 01 70 7c 3e
       0.029389141 0.086167224 0.056377813 0.24652101
000380 1a c3 65 3e 24 e9 8c 3e 3e a8 2a 3e d9 bf a9 3d
       0.22437707 0.27521622 0.16665742 0.08288545
000390 64 ac 03 3e 51 14 e9 bd c0 17 13 3e e8 bd ae 3e
       0.1285873 -0.11380828 0.14364529 0.34129262
0003a0 cf d6 51 be 42 9f 7d 3d 75 29 bd 3e ac 68 db bb
       -0.20492099 0.06191946 0.36945692 -0.0066958275
0003b0 02 17 40 3d 33 94 cf bd f3 a3 01 be e7 71 2f bc
       0.046896942 -0.10135689 -0.12660198 -0.010708309
0003c0 9f 23 02 bd 76 b2 2e 3e 55 4b 2d 3e dc aa 51 be
       -0.031772252 0.17060265 0.16923268 -0.20475334
0003d0 95 b4 51 3d e9 e2 b2 3b 0a 14 e5 3d 52 7b cf 3d
       0.051197607 0.0054591787 0.11185463 0.10130943
0003e0 0f 05 22 3d 39 dd 6c be 0d df b2 bc 25 83 44 3e
       0.039555606 -0.23131265 -0.021834875 0.19190653
0003f0 a8 ad 90 3d 30 a4 ec 3d 28 6a a6 be 16 b3 f8 bd
       0.07064372 0.11554754 -0.32502866 -0.12143533

context_transformer_0/ffn_layer_2/intermediate_dense/einsum/Einsum;context_transformer_0/ffn_layer_2/intermediate_dense/Relu;context_transformer_0/ffn_layer_2/intermediate_dense/add f4 [32]
000000 26 3c 40 be fe 2e fa bd 5d 39 88 be 1c c0 a3 be
       -0.18772945 -0.12215994 -0.26606265 -0.31982505
000010 b9 a8 11 3b b6 86 f9 3c ba 57 3a be 4f f3 77 be
       0.002222581 0.030459743 -0.18197528 -0.24213909
000020 9a 65 81 be b1 7e 19 be e4 2f 5f be 0c 49 48 be
       -0.25272828 -0.14989735 -0.21795613 -0.19559115
000030 8a f4 85 be 9f 07 8d be f0 27 a7 be f4 7c a6 bd
       -0.2616313 -0.27544877 -0.32647657 -0.08129302
000040 49 8b a2 be 06 52 29 be 6e 36 11 be fd 18 9a bd
       -0.3174689 -0.16535196 -0.1418092 -0.075242974
000050 c4 af a7 be 38 36 42 be 4e 20 85 be 7e a8 f9 bd
       -0.32751286 -0.18965995 -0.2600121 -0.121903405
000060 7a 5e 55 be 7d f3 00 be a1 08 67 be f7 cb 88 be
       -0.20836821 -0.12592883 -0.22561885 -0.26718113
000070 6c 1a 1e be 00 4d 60 be 91 23 b9 bc e2 8f e0 bd
       -0.15439767 -0.21904373 -0.022599967 -0.109649435
